data.pth (torch, 15210 bytes, 6 tensors)

l1.weight f4 [8, 220]
0	0xbcb9949d	-0.022653872
1	0xbcc15acd	-0.023602867
2	0xbc549c01	-0.012976647
3	0x3a9062d2	0.0011015779
4	0xbc4fb285	-0.01267684
5	0x3d003fbb	0.031310778
6	0xbd318110	-0.043335974
7	0xbd3ab107	-0.045578983
8	0x3d1700bd	0.03686594
9	0x3c41ed26	0.011836326
10	0xbd726c19	-0.05918512
11	0x3c8215f7	0.015879614
12	0xbd819399	-0.0632698
13	0xbc62f640	-0.013852656
14	0xbd39b048	-0.04533413
15	0x3d4ae681	0.049536232
16	0x3d12ab6b	0.03580801
17	0x3d66a56d	0.056310106
18	0xbd3bbab8	-0.045832366
19	0xbd05c86d	-0.032661844
20	0xbd334e73	-0.043775987
21	0x3d0b040b	0.033939403
22	0xbcaa128f	-0.020760803
23	0x3cb2fcf3	0.021849131
24	0xbaa439dc	-0.001252945
25	0x3d4f15a7	0.05055776
26	0xbc5d630d	-0.013512385
27	0x3b2a1e2f	0.0025957932
28	0xbd3702d9	-0.04468045
29	0x3cd2203a	0.025650132
30	0x3cb8425e	0.022492584
31	0x3d570735	0.052497108
32	0x3cfe43b8	0.03103815
33	0xbd51a327	-0.051180985
34	0x3cb96f0a	0.022635955
35	0xbc31bd6e	-0.010848386
36	0xbb8ea911	-0.0043536504
37	0xbd5c881b	-0.053840738
38	0x3d66da71	0.056360666
39	0x3b6ce032	0.0036144373
40	0x3d29281d	0.04129802
41	0xbcd12cc1	-0.025534036
42	0xbd72f5c9	-0.05931643
43	0xbd61fe11	-0.055173937
44	0x3c73a083	0.014869812
45	0xbd2c580d	-0.04207616
46	0xb9d139c8	-0.00039906637
47	0x3ca248a3	0.019810027
48	0x3a4f429e	0.000790635
49	0xbd14424e	-0.036196046
50	0xbc9b9167	-0.018990232
51	0xbd5c9e5b	-0.053861957
52	0xbc8358e0	-0.01603359
53	0xbd8774da	-0.066140845
54	0x3d30d2c1	0.04316974
55	0xbacf435c	-0.0015812921
56	0x3ceef9d8	0.02917187
57	0x3c09bc8d	0.00840677
58	0xbce8f423	-0.028436726
59	0x3abebf51	0.0014552866
60	0xbd2c9dc3	-0.04214264
61	0xbce84735	-0.028354267
62	0xbd2982d9	-0.04138455
63	0x3d44a431	0.048008148
64	0x3d39552b	0.045247238
65	0xbc0bebf4	-0.008540142
66	0xbd6e1c3b	-0.05813239
67	0x3d35833d	0.04431461
68	0x3c4128a6	0.0117894765
69	0xbd87f5f9	-0.066387124
70	0xbd5d30ca	-0.054001607
71	0x3d0275e7	0.03185072
72	0xbca5e16f	-0.020249097
73	0xbc39b18e	-0.011333836
74	0x3cfe96bf	0.03107774
75	0xbd4cde8e	-0.050016932
76	0x3c7cbbac	0.015425604
77	0x3d0ff461	0.035145167
78	0xbce4b041	-0.027916076
79	0x3d1b40a3	0.03790344
80	0xbbdf0a63	-0.006806658
81	0x3d3913c7	0.045184877
82	0xbcb4619d	-0.022019202
83	0xbc879a8f	-0.016553191
84	0x3d0962f1	0.033541624
85	0xbce3fd01	-0.027830603
86	0xbd1485f6	-0.036260568
87	0x3cafe36f	0.021470753
88	0xbd0868c5	-0.03330304
89	0x3d4fafff	0.050704952
90	0xbcffe2df	-0.03123611
91	0xbd1abdfb	-0.037778836
92	0xbd6eff46	-0.058348916
93	0x3d01dc59	0.03170428
94	0xbd7043c4	-0.058658376
95	0x3c9f6ea7	0.019461943
96	0xbd4892b9	-0.04896805
97	0x3d54a3d9	0.05191407
98	0xbd4a1595	-0.04933699
99	0xbd83a59c	-0.06428072
100	0x3d1f076d	0.03882544
101	0x3c7a6883	0.015283707
102	0xbc4f7419	-0.012661957
103	0x3bd7e10d	0.0065881074
104	0x3c3886de	0.011262624
105	0xbce3cf29	-0.027808743
106	0xbc152e92	-0.0091053415
107	0xbcd7468b	-0.026278755
108	0xbd31a709	-0.043372188
109	0xbcc01ac3	-0.023450261
110	0xbd55a05b	-0.05215488
111	0x3d72e2ea	0.059298433
112	0x3d62b326	0.05534663
113	0xbd2ddc35	-0.042446334
114	0xbd778921	-0.06043351
115	0x3d64844e	0.055790238
116	0xbd85e5d0	-0.06537974
117	0x3ba6f3db	0.005094988
118	0x3cca6c26	0.024709772
119	0x3d433a57	0.04766306
120	0xbd629441	-0.055317167
121	0xbd1296d4	-0.035788372
122	0xbc699e34	-0.01425891
123	0x3d6b7c35	0.0574915
124	0xbabd981c	-0.0014464888
125	0x3b97be7b	0.0046308613
126	0x3d408373	0.04700036
127	0xbcb94181	-0.022614243
128	0xbd1cbb41	-0.038264517
129	0x3cc17eb5	0.023619989
130	0x3cd0fe72	0.025511954
131	0xbd92683f	-0.071487896
132	0xbc29161e	-0.010320215
133	0xbcf87fff	-0.03033447
134	0xbc224e9a	-0.009906435
135	0x3cc8e9ae	0.02452549
136	0xbd3c8544	-0.04602553
137	0xbd05fd1f	-0.0327121
138	0xbd7333e9	-0.059375677
139	0xbd686c1e	-0.056743734
140	0x3d71646f	0.05893367
141	0x3d79c14c	0.060975358
142	0xbd6da979	-0.05802295
143	0x3d375ae3	0.04476441
144	0x3d59376f	0.05303138
145	0xbd83fd3b	-0.06444784
146	0xbd318599	-0.0433403
147	0x3d5e4d71	0.054273073
148	0x3c1960e7	0.009361482
149	0xbd8c4f1a	-0.06851025
150	0x3d3fb02d	0.046798874
151	0x3ca64c47	0.020300044
152	0xbcc7bf0c	-0.02438309
153	0xbd14a717	-0.03629216
154	0x38dce8a3	0.000105337494
155	0x3c344b3e	0.011004267
156	0x3d176393	0.036960196
157	0x3cbb82ea	0.022889573
158	0x3cf634a1	0.030054392
159	0x3d3ed5b9	0.04659054
160	0xbc7810b1	-0.015140698
161	0x3b943a7b	0.004523573
162	0xbd371b88	-0.04470399
163	0x3c61e8e6	0.0137884375
164	0xbd4a54f9	-0.049397442
165	0x3ce330e5	0.027733276
166	0x3d315657	0.04329523
167	0xbd6c078b	-0.05762438
168	0xbd641ef9	-0.0556936
169	0x3cc21929	0.023693638
170	0x3cc814ae	0.024423923
171	0xbc224bba	-0.00990575
172	0xbd4749b7	-0.048654284
173	0xbc97d3af	-0.018533556
174	0x3cd39c3e	0.025831338
175	0x3cba3206	0.022728931
176	0xbd131017	-0.035904016
177	0x3d3724b1	0.044712726
178	0x3cc02dfd	0.023459429
179	0xbd1a82ee	-0.03772252
180	0xbc846ce9	-0.016165214
181	0xbd682217	-0.056673136
182	0x3d4e3587	0.050344016
183	0x3caca6a7	0.02107556
184	0xbb9fe4c1	-0.0048795645
185	0x3c102e4e	0.008800102
186	0x3ca10a47	0.019658221
187	0xbc6e3510	-0.014539018
188	0x3d7982f4	0.060915902
189	0xbd5ea50f	-0.05435663
190	0x3d0385b3	0.032109927
191	0xba29a25b	-0.0006471031
192	0xbd60c6f9	-0.054877255
193	0x3cf2618b	0.029587528
194	0xbd2fd967	-0.04293194
195	0xbd553cc4	-0.052059904
196	0xbd9082b9	-0.07056183
197	0xbc919385	-0.017770538
198	0x3b470451	0.0030367563
199	0xbd8bb934	-0.06822434
200	0xbcd69aed	-0.026196921
201	0x3d4e671d	0.050391305
202	0x3d0ce353	0.03439648
203	0xbd22671a	-0.039649107
204	0x3d39c93f	0.04535794
205	0xbd16a62b	-0.036779564
206	0xbd65c585	-0.056096572
207	0x3d07bb1b	0.033137422
208	0xbbd6f4a3	-0.0065599247
209	0xbcfb29e1	-0.030659618
210	0x3c8a5c83	0.016889816
211	0x3bb9857b	0.005661664
212	0x3c80fe3b	0.015746227
213	0xbd72d2f0	-0.059283197
214	0x3d1ed373	0.038775872
215	0x3d4f08bd	0.050545443
216	0x3d3b0511	0.04565913
217	0x3d414163	0.0471815
218	0xbd322da1	-0.043500546
219	0x3cf259af	0.02958378
220	0xbd7d32fb	-0.061816197
221	0xbcba41fe	-0.022736546
222	0x3c994d22	0.018713538
223	0xbd051af1	-0.032496396
224	0x3b42c2b1	0.0029718096
225	0xbce8ac90	-0.028402597
226	0xbd8067ff	-0.06269836
227	0x3d5df90c	0.054192588
228	0xbd928181	-0.07153607
229	0x3d4a7232	0.04942531
230	0x3cff1e13	0.03114227
231	0x3c782cbf	0.015147387
232	0xbcb84ad2	-0.022496615
233	0x3d1f2c56	0.03886064
234	0xbd1a9490	-0.037739336
235	0xbd8d9d47	-0.06914764
236	0xbd941ee6	-0.07232456
237	0xbd69f9f6	-0.057123147
238	0x3d42fb20	0.047602773
239	0xbc8af5cc	-0.016962908
240	0x39f2004e	0.00046158064
241	0x3d43390e	0.047661833
242	0x3d595064	0.053055182
243	0xbd821a5d	-0.06352685
244	0x3d2cdae2	0.04220093
245	0x3d6ba98f	0.05753475
246	0xbc21b40c	-0.009869587
247	0x3d656cd4	0.05601199
248	0x3d08bffe	0.033386223
249	0xbd5ee1f0	-0.05441469
250	0xbcd045ce	-0.02542391
251	0x3ca59ace	0.020215418
252	0x3d261cda	0.04055486
253	0x3d029b0a	0.031886138
254	0xbd4a5640	-0.04939866
255	0xbcd76496	-0.02629308

l1.bias f4 [8]
0	0x3d660c31	0.05616397
1	0xbcddcc82	-0.027075056
2	0x3d87eb87	0.0663672
3	0x3c8dae0c	0.017294906
4	0xbd7653d1	-0.060138527
5	0x3cf9d930	0.03049907
6	0x3d87416d	0.06604276
7	0xbd1ea46f	-0.038731035

l2.weight f4 [8, 8]
0	0x3eb35827	0.35028192
1	0x3d35bfa7	0.044372227
2	0x3debff1c	0.115232676
3	0xbe292141	-0.16516592
4	0x3e96b217	0.29432747
5	0x3e2887e2	0.16458085
6	0xbe7a933f	-0.24470232
7	0x3e7eece2	0.24895051
8	0xbe9a9050	-0.30188227
9	0xbe9d9da5	-0.30784336
10	0xbea06785	-0.3132898
11	0x3c425aa0	0.011862427
12	0x3eb04c61	0.34433272
13	0xbe8885d8	-0.26664615
14	0x3c054560	0.008134216
15	0xbe9b08cb	-0.30280146
16	0x3c9d94d0	0.019235998
17	0x3ea5c337	0.323755
18	0xbe817b82	-0.2528954
19	0x3e40e626	0.18837795
20	0xbe38a277	-0.18030725
21	0x3da55550	0.08072913
22	0xbde6c846	-0.11268668
23	0x3d82c85c	0.06385872
24	0x3dbeaa45	0.0930982
25	0xbd597c90	-0.053097308
26	0xbea92e40	-0.33043098
27	0xbdb69b00	-0.08916283
28	0x3e80aa31	0.25129846
29	0xbd314db8	-0.04328701
30	0xbe9ff0ab	-0.31238303
31	0xbe59133c	-0.21198744
32	0xbd91e7b8	-0.07124275
33	0x3d14aa60	0.036295295
34	0x3e119624	0.1421743
35	0xbd00de98	-0.031462282
36	0x3d6d8590	0.057988703
37	0xbe4f0f38	-0.20220649
38	0x3e44c272	0.192148
39	0xbcf6a5d0	-0.030108362
40	0x3e906c93	0.28207836
41	0xbd7ad6eb	-0.061240118
42	0xbe441840	-0.19149876
43	0xbeb11463	-0.34585866
44	0xbe5a9159	-0.21344508
45	0xbc0595a0	-0.008153349
46	0x3d2b8d00	0.041882515
47	0x3df9ce40	0.12197542
48	0x3e3faaef	0.1871755
49	0x3e057ae2	0.13035157
50	0xbe98c72a	-0.2983945
51	0xbda4ea0c	-0.080524534
52	0xbea974dd	-0.33096972
53	0xbd1862b0	-0.03720349
54	0x3ea4b4f1	0.32169297
55	0xbe6f0dc2	-0.23345092
56	0x3ea58cc9	0.32333973
57	0xbdc6bdbf	-0.0970416
58	0x3e1cdd0e	0.153187
59	0x3e0d9bda	0.13828984
60	0xbe2ea3a7	-0.17054616
61	0x3eac0b15	0.33602205
62	0xbd14d3b8	-0.036334723
63	0xbe35e802	-0.17764285

l2.bias f4 [8]
0	0x3e98f371	0.2987323
1	0x3ec97144	0.39344227
2	0xbdf0505e	-0.11734079
3	0xbd545233	-0.051836204
4	0xbdd5ba54	-0.1043593
5	0xbc101d68	-0.0087960735
6	0xbe165135	-0.14679416
7	0x3e666df8	0.22502887

l3.weight f4 [45, 8]
0	0xbe49f387	-0.19721805
1	0x3ed96a7a	0.42464048
2	0xbe64ec01	-0.22355653
3	0x3d220320	0.03955376
4	0x3db76b38	0.08955997
5	0xbdf30dac	-0.11867842
6	0x3e751335	0.23933108
7	0xbe604d47	-0.21904479
8	0x3e5cfeea	0.21581617
9	0xbc0f22c1	-0.008736313
10	0x3d81c330	0.06336057
11	0xbe4a27f2	-0.197418
12	0x3d424570	0.047429502
13	0x3dd07f64	0.10180548
14	0x3e83e459	0.25760153
15	0xbec48079	-0.38379267
16	0x3f04e339	0.51909214
17	0x3ebe0f02	0.37120825
18	0x3e918105	0.28418747
19	0xbe69246e	-0.22767803
20	0xbea454be	-0.32095903
21	0x3e222110	0.15832925
22	0xbe0045eb	-0.12526672
23	0xbe09eca5	-0.13469179
24	0x3e314d7f	0.17314719
25	0x3e801af6	0.2502057
26	0xbd431640	-0.04762864
27	0x3d9bcff9	0.07608027
28	0xbde68fc0	-0.11257887
29	0x3e749fa7	0.23889028
30	0xbe4fe1b7	-0.20300947
31	0x3e3c6381	0.18397333
32	0xbf133873	-0.5750801
33	0x3d7529f8	0.059854478
34	0x3cf16580	0.029467344
35	0x3e849990	0.2589841
36	0x3e903579	0.28165796
37	0xbdb0e9f4	-0.08638373
38	0x3e209009	0.15679945
39	0x3dc4a9c7	0.09602695
40	0xbe48ae30	-0.19597697
41	0xbefc8e19	-0.49327162
42	0x3bb832c0	0.0056212842
43	0x3dd81522	0.10550906
44	0xbd4921c0	-0.049104452
45	0x3a98f7c2	0.0011670517
46	0x3e901c07	0.28146383
47	0xbf18e80d	-0.5972908
48	0x3d068668	0.032843024
49	0x3e7cb17a	0.24677077
50	0xbeae78bc	-0.34076488
51	0x3e450c35	0.19242938
52	0xbe8008ae	-0.25006622
53	0xbdd7db23	-0.10539844
54	0xbe4b54a7	-0.19856511
55	0x3d517db7	0.05114528
56	0x3e2ddcec	0.16978806
57	0xbd363829	-0.044487152
58	0xbe3368ba	-0.17520419
59	0xbdb51d70	-0.088435054
60	0xbdaf0670	-0.0854615
61	0xbdbb90b0	-0.09158456
62	0xbea57640	-0.3231678
63	0x3eaf43fb	0.34231552
64	0x3dfa92bc	0.122350186
65	0x3e247658	0.1606077
66	0xbdc5dc2c	-0.09661135
67	0xbe649d0b	-0.22325532
68	0x3e3fa1ea	0.18714109
69	0x3e984e3a	0.29747182
70	0x3e0c80fe	0.13721082
71	0x3e3d0870	0.1846025
72	0x3d599bcd	0.0531271
73	0xbda4f5d3	-0.080547
74	0xbd9cb510	-0.076517224
75	0xbe6c7b8f	-0.23094009
76	0xbe8a03ec	-0.26956117
77	0xbeab3b2c	-0.33443582
78	0x3eb12cfd	0.34604636
79	0x3e5061e6	0.20349845
80	0x3d98d4fc	0.074624985
81	0xbd2e1685	-0.042501945
82	0xbeb4ff94	-0.3535124
83	0xbeadb86a	-0.3392976
84	0x3e462ffa	0.19354239
85	0xbe882704	-0.26592267
86	0x3cad31ef	0.021141974
87	0xbd9e3630	-0.07725179
88	0x3ed0ceb9	0.40782717
89	0xbd9ea392	-0.07746042
90	0x3d5579c0	0.052118063
91	0x3b9b4485	0.004738393
92	0xbc568100	-0.013092279
93	0xbe5e1d1a	-0.21690789
94	0x3d2e569b	0.042563062
95	0x3dd85b48	0.105642855
96	0x3da6bbd6	0.081412956
97	0x3e725463	0.23665003
98	0xbe8c2a39	-0.27375963
99	0xbe067595	-0.13130791
100	0x3e24445a	0.16041699
101	0xbe90ad15	-0.2825705
102	0x3d511bc2	0.051051863
103	0x3e2ba3cc	0.16761702
104	0x3e0f8a0a	0.14017501
105	0xbe30d939	-0.17270364
106	0x3e80d297	0.25160667
107	0xbe28b8cd	-0.16476746
108	0xbe04186e	-0.12899944
109	0xbdb9fec2	-0.09081794
110	0xbcd4e56c	-0.025988303
111	0x3e9c11e4	0.304824
112	0xbed93c16	-0.42428654
113	0x3e483fb6	0.19555554
114	0x3c5f9ac0	0.013647735
115	0xbad319c1	-0.0016105698
116	0x3e175c6e	0.14781353
117	0xbea27e02	-0.3173676
118	0x3e0694a9	0.13142647
119	0xbd1c7a74	-0.038202718
120	0x3de1d29a	0.11026497
121	0xbceb0c62	-0.028692428
122	0x3d8eaf10	0.06966984
123	0xbea449f3	-0.3208767
124	0xbe2ab1fc	-0.16669458
125	0x3e3f7fbf	0.18701075
126	0x3e9b4b6c	0.3033098
127	0xbefa10fc	-0.48841083
128	0x3e1ebc6b	0.15501563
129	0x3defd6a8	0.11710864
130	0x3e840e01	0.25791934
131	0xbdcb6735	-0.099317946
132	0x3eb02de1	0.34410003
133	0x3d9b7002	0.07589723
134	0xbe9a7da7	-0.3017399
135	0x3e31bcea	0.17357221
136	0xbe91888a	-0.28424484
137	0x3dfbc5ed	0.12293611
138	0x3e5721de	0.21009013
139	0xbe0c1804	-0.13681036
140	0x3dd3a23c	0.10333678
141	0x3e31aab9	0.17350282
142	0xbe96e59a	-0.29472047
143	0xbe8fbe5c	-0.2807492
144	0x3f08ae18	0.53390646
145	0x3f24464a	0.6416975
146	0x3e4eb7a2	0.20187238
147	0x3e8e2539	0.27762774
148	0xbd9d55e8	-0.07682401
149	0xbc8aca22	-0.016942088
150	0xbeb21e4f	-0.3478875
151	0x3d9dff69	0.07714731
152	0xbe5491e3	-0.20758776
153	0x3ebe2673	0.3713871
154	0x3e0ea2dc	0.13929313
155	0xbc326713	-0.010888833
156	0xbe8f5672	-0.2799564
157	0x3e2ef63d	0.1708612
158	0x3d63a951	0.055581395
159	0x3dbace13	0.09121337
160	0xbd6e146f	-0.058124956
161	0xbe417b8f	-0.1889479
162	0x3ddaeb74	0.1068944
163	0x3ea2a69f	0.31767747
164	0x3e4dcb26	0.20097026
165	0xbe8dfcf0	-0.27732038
166	0x3dbf5741	0.09342814
167	0xbd8a4646	-0.06751685
168	0xbf0b2501	-0.5435334
169	0xbe643779	-0.22286786
170	0xbeae4f1c	-0.3404473
171	0x3eaac47c	0.3335303
172	0x3a605c00	0.0008558631
173	0xbdaa6aa2	-0.0832112
174	0x3e90eae8	0.2830422
175	0xbf15a366	-0.5845245
176	0xbe409a66	-0.18808898
177	0xbe76981e	-0.24081466
178	0x3eacfd55	0.33787027
179	0xbe6fcd16	-0.23418078
180	0x3e96e38b	0.29470477
181	0xbd6c6eda	-0.057722904
182	0x3e21b92a	0.1579329
183	0xbd572be9	-0.05253211
184	0xbe01bcf9	-0.12669744
185	0x3db6c3db	0.08924075
186	0x3e895ff3	0.26831016
187	0x3ceafa54	0.028683819
188	0xbe110d42	-0.14165214
189	0x3e7f59e6	0.24936637
190	0xbe29556e	-0.16536495
191	0x3c2625b3	0.010140824
192	0x3e60a2a8	0.21937048
193	0xbd93db00	-0.07219505
194	0xbe4622e4	-0.19349247
195	0x3e0c4a49	0.13700213
196	0xbde07eec	-0.109617084
197	0xbe107973	-0.14108829
198	0xbe6e7971	-0.23288514
199	0xbe3b2907	-0.1827737
200	0xbcc76eb7	-0.024344785
201	0x3e965d24	0.29367936
202	0x3ea3ed89	0.32017162
203	0xbc6d0c8e	-0.014468325
204	0x3e269a2e	0.16269752
205	0xbd4e7d3b	-0.050412398
206	0xbeaa9a3c	-0.33320796
207	0xbcb14a73	-0.021641945
208	0xbb9272c5	-0.004469248
209	0x3c869d7f	0.016432522
210	0x3e688b1a	0.22709313
211	0xbe9f5360	-0.31118298
212	0xbd017278	-0.031603307
213	0xbeb8808a	-0.36035568
214	0x3d3ef59a	0.046620943
215	0xbe11174e	-0.14169046
216	0xbe906c87	-0.282078
217	0xbe6b56f4	-0.22982389
218	0xbe737853	-0.23776369
219	0xbe9a8f20	-0.3018732
220	0x3e99185d	0.299014
221	0xbe45c569	-0.19313587
222	0x3e5d437f	0.21607779
223	0x3dfcef53	0.12350335
224	0xbc81de55	-0.015853086
225	0xbe3b861e	-0.1831288
226	0xbe56549a	-0.2093071
227	0x3e994ff4	0.29943812
228	0xbe8decb6	-0.2771966
229	0x3c1b93e3	0.009495708
230	0x3be04279	0.0068438617
231	0xbe23a5b1	-0.15981175
232	0x3ece696f	0.40314814
233	0xbe7932f1	-0.24335839
234	0x3e69be1a	0.22826424
235	0xbe031861	-0.12802269
236	0x3e47591a	0.19467583
237	0xbd6ecde2	-0.058301814
238	0x3d1a35a9	0.03764883
239	0x3b352a3e	0.0027643587
240	0x3e76f155	0.24115498
241	0x3e5fcebd	0.21856208
242	0x3e89e107	0.26929495
243	0xbe2312af	-0.15925096
244	0xbe1dae1e	-0.15398452
245	0xbe93335f	-0.2875013
246	0x3e695d7a	0.22789565
247	0xbde7b123	-0.11313083
248	0x3e20d941	0.15707876
249	0xbe6dcc04	-0.23222357
250	0xbe829fd4	-0.25512564
251	0xbe4f3c98	-0.20237958
252	0x3e505a5e	0.20346972
253	0x3d389fb5	0.045074183
254	0xbe8d427e	-0.27589792
255	0xbe82d54b	-0.25553355

l3.bias f4 [45]
0	0xbdbdcef4	-0.09267989
1	0xbc886f20	-0.016654551
2	0xbdafa2cf	-0.08575975
3	0xbe6b5ab9	-0.22983827
4	0x3dbf6f49	0.09347398
5	0x3d8a5893	0.067551754
6	0xbe243d65	-0.16039045
7	0xbe13bcf9	-0.14427556
8	0xbe33cb4a	-0.17558017
9	0xbd828ef3	-0.06374922
10	0xbcbf15ac	-0.023325764
11	0x3d94366b	0.07236942
12	0xbe422e35	-0.18962939
13	0xbda2e7a7	-0.079543404
14	0x3cd58130	0.026062578
15	0x3d5c53df	0.053790923
16	0x3d6c76d0	0.057730496
17	0x3d8967ec	0.06709275
18	0x3dc14ea0	0.09438825
19	0x3daa3c43	0.08312275
20	0xbe5bcf6c	-0.21465844
21	0x3d729112	0.05922038
22	0xbe2250a0	-0.15851068
23	0xbd115339	-0.035479758
24	0xbd02b216	-0.031908117
25	0xbe0e571a	-0.13900414
26	0xbc05449b	-0.008134033
27	0x3de1c685	0.11024193
28	0x3da2a2fb	0.07941242
29	0xbd7a55b8	-0.061116904
30	0xbe276450	-0.1634686
31	0x3d8a4d5c	0.067530364
32	0xbe3f7c9d	-0.1869988
33	0xbdd68b36	-0.10475771
34	0xbe24ab24	-0.1608091
35	0xbd5715f3	-0.052511167
36	0xbe69fa99	-0.22849502
37	0x3de108d8	0.10988015
38	0xbda30c92	-0.07961382
39	0xbe33188b	-0.17489831
40	0xbdf9a89d	-0.121903636
41	0xbe3d1cb2	-0.18467978
42	0xbe3db731	-0.18526913
43	0x3d5e82aa	0.05432383
44	0xbb28a8ab	-0.00257353
